…
user_pretrain_dir = Qwen/Qwen2.5-0.5B-Instruct
user_llm_init = True
use_ft_flash_attn = True
gradient_accumulation_steps = 4
MODEL_INPUT_TYPE = InputType.SEQ
device = cuda:0
debug = True


Thu 27 Mar 2025 04:28:09 INFO  Pixel200K
The number of users: 200001
Average actions of users: 19.82828
The number of items: 96283
Average actions of items: 41.187927130720176
The number of inters: 3965656
The sparsity of the dataset: 99.9794063532928%
Thu 27 Mar 2025 04:28:10 INFO  HLLM(
  (item_llm): PeftModelForCausalLM(
    (base_model): LoraModel(
      (model): Qwen2ForCausalLM(
        (model): Qwen2Model(
          (embed_tokens): Embedding(151936, 896)
          (layers): ModuleList(
            (0-23): 24 x Qwen2DecoderLayer(
              (self_attn): Qwen2Attention(
                (q_proj): lora.Linear(
                  (base_layer): Linear(in_features=896, out_features=896, bias=True)
                  (lora_dropout): ModuleDict(
                    (default): Identity()
                  )
                  (lora_A): ModuleDict(
                    (default): Linear(in_features=896, out_features=8, bias=False)
                  )
                  (lora_B): ModuleDict(
                    (default): Linear(in_features=8, out_features=896, bias=False)
                  )
                  (lora_embedding_A): ParameterDict()
                  (lora_embedding_B): ParameterDict()
                )
                (k_proj): lora.Linear(
                  (base_layer): Linear(in_features=896, out_features=128, bias=True)
                  (lora_dropout): ModuleDict(
                    (default): Identity()
                  )
                  (lora_A): ModuleDict(
                    (default): Linear(in_features=896, out_features=8, bias=False)
                  )
                  (lora_B): ModuleDict(
                    (default): Linear(in_features=8, out_features=128, bias=False)
                  )
                  (lora_embedding_A): ParameterDict()
                  (lora_embedding_B): ParameterDict()
                )
                (v_proj): lora.Linear(
                  (base_layer): Linear(in_features=896, out_features=128, bias=True)
                  (lora_dropout): ModuleDict(
                    (default): Identity()
                  )
                  (lora_A): ModuleDict(
                    (default): Linear(in_features=896, out_features=8, bias=False)
                  )
                  (lora_B): ModuleDict(
                    (default): Linear(in_features=8, out_features=128, bias=False)
                  )
                  (lora_embedding_A): ParameterDict()
                  (lora_embedding_B): ParameterDict()
                )
                (o_proj): lora.Linear(
                  (base_layer): Linear(in_features=896, out_features=896, bias=False)
                  (lora_dropout): ModuleDict(
                    (default): Identity()
                  )
                  (lora_A): ModuleDict(
                    (default): Linear(in_features=896, out_features=8, bias=False)
                  )
                  (lora_B): ModuleDict(
                    (default): Linear(in_features=8, out_features=896, bias=False)
                  )
                  (lora_embedding_A): ParameterDict()
                  (lora_embedding_B): ParameterDict()
                )
              )
              (mlp): Qwen2MLP(
                (gate_proj): Linear(in_features=896, out_features=4864, bias=False)
                (up_proj): Linear(in_features=896, out_features=4864, bias=False)
                (down_proj): Linear(in_features=4864, out_features=896, bias=False)
                (act_fn): SiLU()
              )
              (input_layernorm): Qwen2RMSNorm((896,), eps=1e-06)
              (post_attention_layernorm): Qwen2RMSNorm((896,), eps=1e-06)
            )
          )
          (norm): Qwen2RMSNorm((896,), eps=1e-06)
          (rotary_emb): Qwen2RotaryEmbedding()
        )
        (lm_head): Linear(in_features=896, out_features=151936, bias=False)
      )
    )
  )
  (user_llm): PeftModelForCausalLM(
    (base_model): LoraModel(
      (model): Qwen2ForCausalLM(
        (model): Qwen2Model(
          (embed_tokens): Embedding(151936, 896)
          (layers): ModuleList(
            (0-23): 24 x Qwen2DecoderLayer(
              (self_attn): Qwen2Attention(
                (q_proj): lora.Linear(
                  (base_layer): Linear(in_features=896, out_features=896, bias=True)
                  (lora_dropout): ModuleDict(
                    (default): Identity()
                  )
                  (lora_A): ModuleDict(
                    (default): Linear(in_features=896, out_features=8, bias=False)
                  )
                  (lora_B): ModuleDict(
                    (default): Linear(in_features=8, out_features=896, bias=False)
                  )
                  (lora_embedding_A): ParameterDict()
                  (lora_embedding_B): ParameterDict()
                )
                (k_proj): lora.Linear(
                  (base_layer): Linear(in_features=896, out_features=128, bias=True)
                  (lora_dropout): ModuleDict(
                    (default): Identity()
                  )
                  (lora_A): ModuleDict(
                    (default): Linear(in_features=896, out_features=8, bias=False)
                  )
                  (lora_B): ModuleDict(
                    (default): Linear(in_features=8, out_features=128, bias=False)
                  )
                  (lora_embedding_A): ParameterDict()
                  (lora_embedding_B): ParameterDict()
                )
                (v_proj): lora.Linear(
                  (base_layer): Linear(in_features=896, out_features=128, bias=True)
                  (lora_dropout): ModuleDict(
                    (default): Identity()
                  )
                  (lora_A): ModuleDict(
                    (default): Linear(in_features=896, out_features=8, bias=False)
                  )
                  (lora_B): ModuleDict(
                    (default): Linear(in_features=8, out_features=128, bias=False)
                  )
                  (lora_embedding_A): ParameterDict()
                  (lora_embedding_B): ParameterDict()
                )
                (o_proj): lora.Linear(
                  (base_layer): Linear(in_features=896, out_features=896, bias=False)
                  (lora_dropout): ModuleDict(
                    (default): Identity()
                  )
                  (lora_A): ModuleDict(
                    (default): Linear(in_features=896, out_features=8, bias=False)
                  )
                  (lora_B): ModuleDict(
                    (default): Linear(in_features=8, out_features=896, bias=False)
                  )
                  (lora_embedding_A): ParameterDict()
                  (lora_embedding_B): ParameterDict()
                )
              )
              (mlp): Qwen2MLP(
                (gate_proj): Linear(in_features=896, out_features=4864, bias=False)
                (up_proj): Linear(in_features=896, out_features=4864, bias=False)
                (down_proj): Linear(in_features=4864, out_features=896, bias=False)
                (act_fn): SiLU()
              )
              (input_layernorm): Qwen2RMSNorm((896,), eps=1e-06)
              (post_attention_layernorm): Qwen2RMSNorm((896,), eps=1e-06)
            )
          )
          (norm): Qwen2RMSNorm((896,), eps=1e-06)
          (rotary_emb): Qwen2RotaryEmbedding()
        )
        (lm_head): Linear(in_features=896, out_features=151936, bias=False)
      )
    )
  )
)
Trainable parameters: 2163585.0
Thu 27 Mar 2025 04:28:10 INFO  Use consine scheduler with 37941.0 warmup 379410 total steps
Thu 27 Mar 2025 04:28:10 INFO  Use deepspeed strategy
Thu 27 Mar 2025 04:28:14 INFO  lr: 0.0000000 accum_loss: 0.0371 data: 1.895 fwd: 0.716 bwd: 0.462 nce_samples: 45.000 nce_top1_acc: 1.000 nce_top5_acc: 1.000 nce_top10_acc: 1.000
…
