Thu 27 Mar 2025 22:24:38 INFO  HLLM(
  (item_llm): PeftModelForFeatureExtraction(
    (base_model): LoraModel(
      (model): BertModel(
        (embeddings): BertEmbeddings(
          (word_embeddings): Embedding(30522, 1024, padding_idx=0)
          (position_embeddings): Embedding(512, 1024)
          (token_type_embeddings): Embedding(2, 1024)
          (LayerNorm): LayerNorm((1024,), eps=1e-12, elementwise_affine=True)
          (dropout): Dropout(p=0.1, inplace=False)
        )
        (encoder): BertEncoder(
          (layer): ModuleList(
            (0-23): 24 x BertLayer(
              (attention): BertAttention(
                (self): BertSelfAttention(
                  (query): lora.Linear(
                    (base_layer): Linear(in_features=1024, out_features=1024, bias=True)
                    (lora_dropout): ModuleDict(
                      (default): Identity()
                    )
                    (lora_A): ModuleDict(
                      (default): Linear(in_features=1024, out_features=8, bias=False)
                    )
                    (lora_B): ModuleDict(
                      (default): Linear(in_features=8, out_features=1024, bias=False)
                    )
                    (lora_embedding_A): ParameterDict()
                    (lora_embedding_B): ParameterDict()
                  )
                  (key): Linear(in_features=1024, out_features=1024, bias=True)
                  (value): lora.Linear(
                    (base_layer): Linear(in_features=1024, out_features=1024, bias=True)
                    (lora_dropout): ModuleDict(
                      (default): Identity()
                    )
                    (lora_A): ModuleDict(
                      (default): Linear(in_features=1024, out_features=8, bias=False)
                    )
                    (lora_B): ModuleDict(
                      (default): Linear(in_features=8, out_features=1024, bias=False)
                    )
                    (lora_embedding_A): ParameterDict()
                    (lora_embedding_B): ParameterDict()
                  )
                  (dropout): Dropout(p=0.1, inplace=False)
                )
                (output): BertSelfOutput(
                  (dense): Linear(in_features=1024, out_features=1024, bias=True)
                  (LayerNorm): LayerNorm((1024,), eps=1e-12, elementwise_affine=True)
                  (dropout): Dropout(p=0.1, inplace=False)
                )
              )
              (intermediate): BertIntermediate(
                (dense): Linear(in_features=1024, out_features=4096, bias=True)
                (intermediate_act_fn): GELUActivation()
              )
              (output): BertOutput(
                (dense): Linear(in_features=4096, out_features=1024, bias=True)
                (LayerNorm): LayerNorm((1024,), eps=1e-12, elementwise_affine=True)
                (dropout): Dropout(p=0.1, inplace=False)
              )
            )
          )
        )
        (pooler): BertPooler(
          (dense): Linear(in_features=1024, out_features=1024, bias=True)
          (activation): Tanh()
        )
      )
    )
  )
  (user_llm): PeftModelForFeatureExtraction(
    (base_model): LoraModel(
      (model): LlamaForCausalLM(
        (model): LlamaModel(
          (embed_tokens): Embedding(32000, 2048)
          (layers): ModuleList(
            (0-21): 22 x LlamaDecoderLayer(
              (self_attn): LlamaAttention(
                (q_proj): lora.Linear(
                  (base_layer): Linear(in_features=2048, out_features=2048, bias=False)
                  (lora_dropout): ModuleDict(
                    (default): Identity()
                  )
                  (lora_A): ModuleDict(
                    (default): Linear(in_features=2048, out_features=8, bias=False)
                  )
                  (lora_B): ModuleDict(
                    (default): Linear(in_features=8, out_features=2048, bias=False)
                  )
                  (lora_embedding_A): ParameterDict()
                  (lora_embedding_B): ParameterDict()
                )
                (k_proj): Linear(in_features=2048, out_features=256, bias=False)
                (v_proj): lora.Linear(
                  (base_layer): Linear(in_features=2048, out_features=256, bias=False)
                  (lora_dropout): ModuleDict(
                    (default): Identity()
                  )
                  (lora_A): ModuleDict(
                    (default): Linear(in_features=2048, out_features=8, bias=False)
                  )
                  (lora_B): ModuleDict(
                    (default): Linear(in_features=8, out_features=256, bias=False)
                  )
                  (lora_embedding_A): ParameterDict()
                  (lora_embedding_B): ParameterDict()
                )
                (o_proj): Linear(in_features=2048, out_features=2048, bias=False)
                (rotary_emb): LlamaRotaryEmbedding()
              )
              (mlp): LlamaMLP(
                (gate_proj): Linear(in_features=2048, out_features=5632, bias=False)
                (up_proj): Linear(in_features=2048, out_features=5632, bias=False)
                (down_proj): Linear(in_features=5632, out_features=2048, bias=False)
                (act_fn): SiLUActivation()
              )
              (input_layernorm): LlamaRMSNorm()
              (post_attention_layernorm): LlamaRMSNorm()
            )
          )
          (norm): LlamaRMSNorm()
        )
        (lm_head): Linear(in_features=2048, out_features=32000, bias=False)
      )
    )
  )
  (item_proj): Linear(in_features=1024, out_features=2048, bias=True)
)
Trainable parameters: 4013057.0
Thu 27 Mar 2025 22:24:38 INFO  Use consine scheduler with 37941.0 warmup 379410 total steps
Thu 27 Mar 2025 22:24:38 INFO  Use deepspeed strategy
Thu 27 Mar 2025 22:24:43 INFO  [Debug] Logit scale: 14.2500
Thu 27 Mar 2025 22:24:43 INFO  [Debug] Pos logits mean: 0.1245
Thu 27 Mar 2025 22:24:43 INFO  [Debug] Neg logits mean: 0.1216
…
