Thu 27 Mar 2025 21:23:05 INFO  HLLM(
  (item_llm): PeftModelForFeatureExtraction(
    (base_model): LoraModel(
      (model): LlamaForCausalLM(
        (model): LlamaModel(
          (embed_tokens): Embedding(32000, 2048)
          (layers): ModuleList(
            (0-21): 22 x LlamaDecoderLayer(
              (self_attn): LlamaAttention(
                (q_proj): lora.Linear(
                  (base_layer): Linear(in_features=2048, out_features=2048, bias=False)
                  (lora_dropout): ModuleDict(
                    (default): Identity()
                  )
                  (lora_A): ModuleDict(
                    (default): Linear(in_features=2048, out_features=8, bias=False)
                  )
                  (lora_B): ModuleDict(
                    (default): Linear(in_features=8, out_features=2048, bias=False)
                  )
                  (lora_embedding_A): ParameterDict()
                  (lora_embedding_B): ParameterDict()
                )
                (k_proj): Linear(in_features=2048, out_features=256, bias=False)
                (v_proj): lora.Linear(
                  (base_layer): Linear(in_features=2048, out_features=256, bias=False)
                  (lora_dropout): ModuleDict(
                    (default): Identity()
                  )
                  (lora_A): ModuleDict(
                    (default): Linear(in_features=2048, out_features=8, bias=False)
                  )
                  (lora_B): ModuleDict(
                    (default): Linear(in_features=8, out_features=256, bias=False)
                  )
                  (lora_embedding_A): ParameterDict()
                  (lora_embedding_B): ParameterDict()
                )
                (o_proj): Linear(in_features=2048, out_features=2048, bias=False)
                (rotary_emb): LlamaRotaryEmbedding()
              )
              (mlp): LlamaMLP(
                (gate_proj): Linear(in_features=2048, out_features=5632, bias=False)
                (up_proj): Linear(in_features=2048, out_features=5632, bias=False)
                (down_proj): Linear(in_features=5632, out_features=2048, bias=False)
                (act_fn): SiLUActivation()
              )
              (input_layernorm): LlamaRMSNorm()
              (post_attention_layernorm): LlamaRMSNorm()
            )
          )
          (norm): LlamaRMSNorm()
        )
        (lm_head): Linear(in_features=2048, out_features=32000, bias=False)
      )
    )
  )
  (user_llm): PeftModelForFeatureExtraction(
    (base_model): LoraModel(
      (model): Qwen2ForCausalLM(
        (model): Qwen2Model(
          (embed_tokens): Embedding(151936, 896)
          (layers): ModuleList(
            (0-23): 24 x Qwen2DecoderLayer(
              (self_attn): Qwen2Attention(
                (q_proj): lora.Linear(
                  (base_layer): Linear(in_features=896, out_features=896, bias=True)
                  (lora_dropout): ModuleDict(
                    (default): Identity()
                  )
                  (lora_A): ModuleDict(
                    (default): Linear(in_features=896, out_features=8, bias=False)
                  )
                  (lora_B): ModuleDict(
                    (default): Linear(in_features=8, out_features=896, bias=False)
                  )
                  (lora_embedding_A): ParameterDict()
                  (lora_embedding_B): ParameterDict()
                )
                (k_proj): lora.Linear(
                  (base_layer): Linear(in_features=896, out_features=128, bias=True)
                  (lora_dropout): ModuleDict(
                    (default): Identity()
                  )
                  (lora_A): ModuleDict(
                    (default): Linear(in_features=896, out_features=8, bias=False)
                  )
                  (lora_B): ModuleDict(
                    (default): Linear(in_features=8, out_features=128, bias=False)
                  )
                  (lora_embedding_A): ParameterDict()
                  (lora_embedding_B): ParameterDict()
                )
                (v_proj): lora.Linear(
                  (base_layer): Linear(in_features=896, out_features=128, bias=True)
                  (lora_dropout): ModuleDict(
                    (default): Identity()
                  )
                  (lora_A): ModuleDict(
                    (default): Linear(in_features=896, out_features=8, bias=False)
                  )
                  (lora_B): ModuleDict(
                    (default): Linear(in_features=8, out_features=128, bias=False)
                  )
                  (lora_embedding_A): ParameterDict()
                  (lora_embedding_B): ParameterDict()
                )
                (o_proj): lora.Linear(
                  (base_layer): Linear(in_features=896, out_features=896, bias=False)
                  (lora_dropout): ModuleDict(
                    (default): Identity()
                  )
                  (lora_A): ModuleDict(
                    (default): Linear(in_features=896, out_features=8, bias=False)
                  )
                  (lora_B): ModuleDict(
                    (default): Linear(in_features=8, out_features=896, bias=False)
                  )
                  (lora_embedding_A): ParameterDict()
                  (lora_embedding_B): ParameterDict()
                )
              )
              (mlp): Qwen2MLP(
                (gate_proj): Linear(in_features=896, out_features=4864, bias=False)
                (up_proj): Linear(in_features=896, out_features=4864, bias=False)
                (down_proj): Linear(in_features=4864, out_features=896, bias=False)
                (act_fn): SiLU()
              )
              (input_layernorm): Qwen2RMSNorm((896,), eps=1e-06)
              (post_attention_layernorm): Qwen2RMSNorm((896,), eps=1e-06)
            )
          )
          (norm): Qwen2RMSNorm((896,), eps=1e-06)
          (rotary_emb): Qwen2RotaryEmbedding()
        )
        (lm_head): Linear(in_features=896, out_features=151936, bias=False)
      )
    )
  )
  (item_proj): Linear(in_features=2048, out_features=896, bias=True)
)
Trainable parameters: 4045697.0
Thu 27 Mar 2025 21:23:05 INFO  Use consine scheduler with 37941.0 warmup 379410 total steps
Thu 27 Mar 2025 21:23:05 INFO  Use deepspeed strategy
Thu 27 Mar 2025 21:23:09 INFO  [Debug] Logit scale: 14.2500
Thu 27 Mar 2025 21:23:09 INFO  [Debug] Pos logits mean: 0.0464
Thu 27 Mar 2025 21:23:09 INFO  [Debug] Neg logits mean: 0.0469
…
