…
user_pretrain_dir = openai-community/gpt2
user_llm_init = True
use_ft_flash_attn = True
gradient_accumulation_steps = 2
use_tained_model = True
MODEL_INPUT_TYPE = InputType.SEQ
device = cuda:0
use_trained_model = True
debug = False


Mon 31 Mar 2025 06:40:42 INFO  Pixel200K
The number of users: 200001
Average actions of users: 19.82828
The number of items: 96283
Average actions of items: 41.187927130720176
The number of inters: 3965656
The sparsity of the dataset: 99.9794063532928%
Mon 31 Mar 2025 06:40:42 INFO  HLLM(
  (item_llm): LlamaForCausalLM(
    (model): LlamaModel(
      (embed_tokens): Embedding(32000, 2048)
      (layers): ModuleList(
        (0-21): 22 x LlamaDecoderLayer(
          (self_attn): LlamaAttention(
            (q_proj): Linear(in_features=2048, out_features=2048, bias=False)
            (k_proj): Linear(in_features=2048, out_features=256, bias=False)
            (v_proj): Linear(in_features=2048, out_features=256, bias=False)
            (o_proj): Linear(in_features=2048, out_features=2048, bias=False)
            (rotary_emb): LlamaRotaryEmbedding()
          )
          (mlp): LlamaMLP(
            (gate_proj): Linear(in_features=2048, out_features=5632, bias=False)
            (up_proj): Linear(in_features=2048, out_features=5632, bias=False)
            (down_proj): Linear(in_features=5632, out_features=2048, bias=False)
            (act_fn): SiLUActivation()
          )
          (input_layernorm): LlamaRMSNorm()
          (post_attention_layernorm): LlamaRMSNorm()
        )
      )
      (norm): LlamaRMSNorm()
    )
    (lm_head): Linear(in_features=2048, out_features=32000, bias=False)
  )
  (user_llm): GPT2ForCausalLM(
    (transformer): GPT2Model(
      (wte): Embedding(50257, 768)
      (wpe): Embedding(1024, 768)
      (drop): Dropout(p=0.1, inplace=False)
      (h): ModuleList(
        (0-11): 12 x GPT2Block(
          (ln_1): LayerNorm((768,), eps=1e-05, elementwise_affine=True)
          (attn): GPT2Attention(
            (c_attn): Conv1D(nf=2304, nx=768)
            (c_proj): Conv1D(nf=768, nx=768)
            (attn_dropout): Dropout(p=0.1, inplace=False)
            (resid_dropout): Dropout(p=0.1, inplace=False)
          )
          (ln_2): LayerNorm((768,), eps=1e-05, elementwise_affine=True)
          (mlp): GPT2MLP(
            (c_fc): Conv1D(nf=3072, nx=768)
            (c_proj): Conv1D(nf=768, nx=3072)
            (act): NewGELUActivation()
            (dropout): Dropout(p=0.1, inplace=False)
          )
        )
      )
      (ln_f): LayerNorm((768,), eps=1e-05, elementwise_affine=True)
    )
    (lm_head): Linear(in_features=768, out_features=50257, bias=False)
  )
  (item_proj): Linear(in_features=2048, out_features=768, bias=True)
)
Trainable parameters: 126015489.0
Mon 31 Mar 2025 06:40:42 INFO  Use consine scheduler with 5691 warmup 56911 total steps
Mon 31 Mar 2025 06:40:42 INFO  Use deepspeed strategy
Mon 31 Mar 2025 06:40:53 INFO  lr: 0.0000000 accum_loss: 0.0555 data: 2.656 fwd: 1.011 bwd: 0.450 nce_samples: 89.000 nce_top1_acc: 0.014 nce_top5_acc: 0.054 nce_top10_acc: 0.095 nce_top50_acc: 0.770
…
