…
user_pretrain_dir = TinyLlama/TinyLlama-1.1B-intermediate-step-1431k-3T
user_llm_init = True
use_ft_flash_attn = True
gradient_accumulation_steps = 1
MODEL_INPUT_TYPE = InputType.SEQ
device = cuda:0
debug = False


Fri 28 Mar 2025 05:08:09 INFO  Pixel200K
The number of users: 200001
Average actions of users: 19.82828
The number of items: 96283
Average actions of items: 41.187927130720176
The number of inters: 3965656
The sparsity of the dataset: 99.9794063532928%
Fri 28 Mar 2025 05:08:09 INFO  HLLM(
  (item_llm): PeftModelForCausalLM(
    (base_model): LoraModel(
      (model): LlamaForCausalLM(
        (model): LlamaModel(
          (embed_tokens): Embedding(32000, 2048)
          (layers): ModuleList(
            (0-21): 22 x LlamaDecoderLayer(
              (self_attn): LlamaAttention(
                (q_proj): lora.Linear(
                  (base_layer): Linear(in_features=2048, out_features=2048, bias=False)
                  (lora_dropout): ModuleDict(
                    (default): Identity()
                  )
                  (lora_A): ModuleDict(
                    (default): Linear(in_features=2048, out_features=8, bias=False)
                  )
                  (lora_B): ModuleDict(
                    (default): Linear(in_features=8, out_features=2048, bias=False)
                  )
                  (lora_embedding_A): ParameterDict()
                  (lora_embedding_B): ParameterDict()
                )
                (k_proj): Linear(in_features=2048, out_features=256, bias=False)
                (v_proj): lora.Linear(
                  (base_layer): Linear(in_features=2048, out_features=256, bias=False)
                  (lora_dropout): ModuleDict(
                    (default): Identity()
                  )
                  (lora_A): ModuleDict(
                    (default): Linear(in_features=2048, out_features=8, bias=False)
                  )
                  (lora_B): ModuleDict(
                    (default): Linear(in_features=8, out_features=256, bias=False)
                  )
                  (lora_embedding_A): ParameterDict()
                  (lora_embedding_B): ParameterDict()
                )
                (o_proj): Linear(in_features=2048, out_features=2048, bias=False)
                (rotary_emb): LlamaRotaryEmbedding()
              )
              (mlp): LlamaMLP(
                (gate_proj): Linear(in_features=2048, out_features=5632, bias=False)
                (up_proj): Linear(in_features=2048, out_features=5632, bias=False)
                (down_proj): Linear(in_features=5632, out_features=2048, bias=False)
                (act_fn): SiLUActivation()
              )
              (input_layernorm): LlamaRMSNorm()
              (post_attention_layernorm): LlamaRMSNorm()
            )
          )
          (norm): LlamaRMSNorm()
        )
        (lm_head): Linear(in_features=2048, out_features=32000, bias=False)
      )
    )
  )
  (user_llm): PeftModelForCausalLM(
    (base_model): LoraModel(
      (model): LlamaForCausalLM(
        (model): LlamaModel(
          (embed_tokens): Embedding(32000, 2048)
          (layers): ModuleList(
            (0-21): 22 x LlamaDecoderLayer(
              (self_attn): LlamaAttention(
                (q_proj): lora.Linear(
                  (base_layer): Linear(in_features=2048, out_features=2048, bias=False)
                  (lora_dropout): ModuleDict(
                    (default): Identity()
                  )
                  (lora_A): ModuleDict(
                    (default): Linear(in_features=2048, out_features=8, bias=False)
                  )
                  (lora_B): ModuleDict(
                    (default): Linear(in_features=8, out_features=2048, bias=False)
                  )
                  (lora_embedding_A): ParameterDict()
                  (lora_embedding_B): ParameterDict()
                )
                (k_proj): Linear(in_features=2048, out_features=256, bias=False)
                (v_proj): lora.Linear(
                  (base_layer): Linear(in_features=2048, out_features=256, bias=False)
                  (lora_dropout): ModuleDict(
                    (default): Identity()
                  )
                  (lora_A): ModuleDict(
                    (default): Linear(in_features=2048, out_features=8, bias=False)
                  )
                  (lora_B): ModuleDict(
                    (default): Linear(in_features=8, out_features=256, bias=False)
                  )
                  (lora_embedding_A): ParameterDict()
                  (lora_embedding_B): ParameterDict()
                )
                (o_proj): Linear(in_features=2048, out_features=2048, bias=False)
                (rotary_emb): LlamaRotaryEmbedding()
              )
              (mlp): LlamaMLP(
                (gate_proj): Linear(in_features=2048, out_features=5632, bias=False)
                (up_proj): Linear(in_features=2048, out_features=5632, bias=False)
                (down_proj): Linear(in_features=5632, out_features=2048, bias=False)
                (act_fn): SiLUActivation()
              )
              (input_layernorm): LlamaRMSNorm()
              (post_attention_layernorm): LlamaRMSNorm()
            )
          )
          (norm): LlamaRMSNorm()
        )
        (lm_head): Linear(in_features=2048, out_features=32000, bias=False)
      )
    )
  )
  (item_proj): Identity()
)
Trainable parameters: 2254849.0
Fri 28 Mar 2025 05:08:09 INFO  Use consine scheduler with 9485.5 warmup 94855 total steps
Fri 28 Mar 2025 05:08:09 INFO  Use deepspeed strategy
Fri 28 Mar 2025 05:08:15 INFO  lr: 0.0000000 accum_loss: 0.0676 data: 2.536 fwd: 0.873 bwd: 0.492 nce_samples: 177.000 nce_top1_acc: 0.027 nce_top5_acc: 0.074 nce_top10_acc: 0.114 nce_top50_acc: 0.396 nce_top100_acc: 0.644
…
