…
user_pretrain_dir = TinyLlama/TinyLlama-1.1B-intermediate-step-1431k-3T
user_llm_init = True
use_ft_flash_attn = True
gradient_accumulation_steps = 4
use_tained_model = True
MODEL_INPUT_TYPE = InputType.SEQ
device = cuda:0
use_trained_model = True


Sat 29 Mar 2025 04:48:59 INFO  Pixel200K
The number of users: 200001
Average actions of users: 19.82828
The number of items: 96283
Average actions of items: 41.187927130720176
The number of inters: 3965656
The sparsity of the dataset: 99.9794063532928%
Sat 29 Mar 2025 04:48:59 INFO  HLLM(
  (item_llm): LlamaForCausalLM(
    (model): LlamaModel(
      (embed_tokens): Embedding(32000, 2048)
      (layers): ModuleList(
        (0-21): 22 x LlamaDecoderLayer(
          (self_attn): LlamaAttention(
            (q_proj): Linear(in_features=2048, out_features=2048, bias=False)
            (k_proj): Linear(in_features=2048, out_features=256, bias=False)
            (v_proj): Linear(in_features=2048, out_features=256, bias=False)
            (o_proj): Linear(in_features=2048, out_features=2048, bias=False)
            (rotary_emb): LlamaRotaryEmbedding()
          )
          (mlp): LlamaMLP(
            (gate_proj): Linear(in_features=2048, out_features=5632, bias=False)
            (up_proj): Linear(in_features=2048, out_features=5632, bias=False)
            (down_proj): Linear(in_features=5632, out_features=2048, bias=False)
            (act_fn): SiLUActivation()
          )
          (input_layernorm): LlamaRMSNorm()
          (post_attention_layernorm): LlamaRMSNorm()
        )
      )
      (norm): LlamaRMSNorm()
    )
    (lm_head): Linear(in_features=2048, out_features=32000, bias=False)
  )
  (user_llm): LlamaForCausalLM(
    (model): LlamaModel(
      (embed_tokens): Embedding(32000, 2048)
      (layers): ModuleList(
        (0-21): 22 x LlamaDecoderLayer(
          (self_attn): LlamaAttention(
            (q_proj): Linear(in_features=2048, out_features=2048, bias=False)
            (k_proj): Linear(in_features=2048, out_features=256, bias=False)
            (v_proj): Linear(in_features=2048, out_features=256, bias=False)
            (o_proj): Linear(in_features=2048, out_features=2048, bias=False)
            (rotary_emb): LlamaRotaryEmbedding()
          )
          (mlp): LlamaMLP(
            (gate_proj): Linear(in_features=2048, out_features=5632, bias=False)
            (up_proj): Linear(in_features=2048, out_features=5632, bias=False)
            (down_proj): Linear(in_features=5632, out_features=2048, bias=False)
            (act_fn): SiLUActivation()
          )
          (input_layernorm): LlamaRMSNorm()
          (post_attention_layernorm): LlamaRMSNorm()
        )
      )
      (norm): LlamaRMSNorm()
    )
    (lm_head): Linear(in_features=2048, out_features=32000, bias=False)
  )
  (item_proj): Identity()
)
Trainable parameters: 120064000
Sat 29 Mar 2025 04:48:59 INFO  Use consine scheduler with 11382.300000000001 warmup 113823 total steps
Sat 29 Mar 2025 04:48:59 INFO  Use deepspeed strategy
Sat 29 Mar 2025 04:49:07 INFO  lr: 0.0000000 accum_loss: 0.0149 data: 2.862 fwd: 0.889 bwd: 0.296 nce_samples: 89.000 nce_top1_acc: 0.703 nce_top5_acc: 0.892 nce_top10_acc: 0.919 nce_top50_acc: 1.000
…
